MSLR/model.pt (torch, 114703 bytes, 7 tensors)

weight f4 [128, 136]
00000000: 4bd0 5d3e cb68 8bbd d4f5 0a3e e72a 583c
00000010: 6da7 8a3e 22a6 1fbe a756 903d 8f83 9bbe
00000020: 6b52 02be c944 9d3e 35b9 053f 9960 37be
00000030: 6664 92bb 833b 2bbe 74c7 d53e 1124 63be
00000040: 5544 3fbd 5c75 ae3d 1920 03bd c787 6cbe
00000050: 2951 b2bd 03cd 56bc ce81 ab3c d9fd 0c3c
00000060: 5ec4 f4bc 999d bebc 9a07 663d 746a a53d
00000070: 7be5 bfbb b2bd 1a3d 712d b2bd 0efd 28bc
00000080: b76e 13bd 1ec1 e63c 46d9 99bd 94a9 363d
00000090: 92ec 163d d973 303d 5511 693c d646 05bb
000000a0: 18f4 a13c 0ddc ddbd 4733 9e3c 9541 9dbc
000000b0: e6c5 783c be23 bd3b 2741 003e 0290 873c
000000c0: 70d7 40be d356 afbd 9579 2d3e d044 113f
000000d0: 58a0 3abd e9a4 cabd 980e 443e 91d8 3bbe
000000e0: 9f98 363e 8f6c 2f3e 91b5 a6be 87f4 f5be
000000f0: 5e76 38bd f2ce 653e d724 e1bd 3076 88be
00000100: 5ff1 21be 9cee bdbc cc82 f93d ee76 04be
00000110: cee3 d7b9 9f79 b4be 751e ca3b 4ac6 b8bd
00000120: d57e 44bc 7413 c03d b74a 67bd 788a 463e
00000130: b3af 493e 0bff 4c3c d291 9f3d d6db 573e
00000140: 6562 73bc b36b 103e 29de 1fbd 320b e53d
00000150: 3b17 e8bd e02a 0d3c 7e70 033e 787c 87bd
00000160: cf80 273d 9e1d 273d a8a7 19bd 42fe 2abd
00000170: 54fc 833d 6ca7 27bb a980 223d d180 acbe
00000180: 3e0d 8d3e d312 24bf 96ec 2a3e 9872 593f
00000190: 4934 103e e671 f33e bf4a 57bd be34 1bbf
000001a0: 64d8 f63d ebec c93d 482d 013f e22d 913d
000001b0: 51e7 6f3e c0be b13e efb0 a13d b6c6 fc3d
000001c0: eaf8 52bd 31a6 ccbe 8baa cf3e 4c4c eebe
000001d0: ec14 3dbe 4e7a 86be 15b7 39bf 1920 b6be
000001e0: c450 53bd b4bd 3f3d 9eeb e1bd dc9b 15bf
000001f0: f428 1f3e 1f49 ff3c 9244 463e 7563 a5bd
00000200: 5812 f43d 5d37 ea3e e7aa dfbd e747 e23e
00000210: bfee 943d 2d5d e63d 1d52 c13c 016e 6e3d
00000220: 62d4 4b3e d705 ed3d 0722 9e3e cb7b cf3e
00000230: f1b2 283e c6ce 42be bec4 3ebe 0bd3 1f3a
00000240: 3fb1 163e b6f2 d3be 4cb8 a6be 95c9 3fbc
00000250: 8eb5 cc3d 1baf 83bd 194e bebe e336 39be
00000260: c685 473e ce88 aabb 404a 0c3f 9ade 14be
00000270: 2f52 943d 2d33 923d 6363 d5bb 3c8f 863d
00000280: d1c1 093e 8886 d73d 105b 1a3e 42ff fe3b
00000290: 4c97 243e 9134 123e 4843 373e 22b9 aa3d
000002a0: 01c8 b6bb 8d27 da3c 59f7 253e c670 573d
000002b0: 3640 1b3e 2f42 cd3d 28aa 333d 264a a83d
000002c0: 1a63 673b 1370 1fbc 24bc 793d bb99 b23c
000002d0: 22a3 d1bb e48b e33d dcc4 6f3e a01f 513e
000002e0: aad0 c43e 0fb9 7b3d 86ad 883c f923 a03d
000002f0: f3c7 6abb cce6 7fbd e25d 94bd 49e4 ad3e
00000300: 8ee1 fc3d 1957 6a3e a616 193e 4916 6ebe
00000310: a5ca 43bd 532c 803e e1cb 16be df1f 4e3c
00000320: 0608 6abe 6f81 7c3e c60d 1ebe 5588 d2bc
00000330: a2d7 373e b054 e23d 2766 8c3d d18c 063d
00000340: 60bb 923d b473 e03c 4954 8b3c 0991 ef3c
00000350: e111 f93c 174f 8cbc 0016 48bd 95e2 0abd
00000360: e968 8f3d e614 a03d 273c e03d 35a4 8abc
00000370: 3efd 8d3d 740e 7f3d 811f 293c 4452 48bb
00000380: d289 06be c3e4 703d 1a68 053e 26c1 a83d
00000390: 8b40 e73d d768 a43c 4a23 033e 1364 05bf
000003a0: 4d38 93bd 127e 863c fae3 533e 92f7 a6be
000003b0: c60d 47be 714f 91bd 5beb 3c3e c583 9f3e
000003c0: 0f6c 2ebf d9a4 c6be 5a36 97bc 42d2 8bbe
000003d0: e0b8 44be 371c 1cbf faef 2abe 0cc3 6fbe
000003e0: 1214 00bf cb79 06bf 42cf 43be e324 613e
000003f0: 3be2 f1bc f9f0 88bd 5a41 d9be d4f0 b33e
0.21661489 -0.06807097 0.13570338 0.0131938225 0.2708086 -0.15590718 0.070477776 -0.3037381
-0.12726752 0.3071654 0.5223573 -0.17907943 -0.004467535 -0.1672192 0.41753733 -0.22181727
-0.046696026 0.08518478 -0.032013033 -0.2309867 -0.08706886 -0.013110402 0.02093592 0.008605444
-0.029878791 -0.023268508 0.056159593 0.08076945 -0.0058562136 0.037778564 -0.087000735 -0.010314239
-0.035994258 0.028168257 -0.07512145 0.044595316 0.036846705 0.04307923 0.014225324 -0.002033641
0.019769713 -0.10832987 0.01931156 -0.019196311 0.015183901 0.005772083 0.12524854 0.01654816
-0.18832183 -0.08561482 0.16940911 0.56745625 -0.045563072 -0.09894735 0.19146192 -0.18344332
0.17831658 0.17131256 -0.325604 -0.48038122 -0.04503476 0.22442225 -0.10993355 -0.2665267
-0.15814732 -0.023185067 0.12183151 -0.12935993 -0.00041177723 -0.3524904 0.0061681815 -0.09022196
-0.01199313 0.093787104 -0.056467738 0.19388759 0.1969593 0.012511979 0.07791485 0.21079955
-0.014855002 0.14103584 -0.039030228 0.11183776 -0.11332556 0.008616179 0.12835881 -0.066155374
0.040894326 0.04079973 -0.037513405 -0.041746385 0.06444612 -0.002558197 0.03967348 -0.3369203
0.27549165 -0.64091223 0.16691813 0.8494048 0.14082445 0.47547835 -0.052561518 -0.60627353
0.12052992 0.09859642 0.5045972 0.070888296 0.23428084 0.34715843 0.078950755 0.123425886
-0.051506914 -0.39970544 0.405598 -0.46542585 -0.18465012 -0.26265186 -0.72544986 -0.35571364
-0.051590696 0.046811774 -0.110312685 -0.5844095 0.15542966 0.031162797 0.19362095 -0.080756105
0.11917561 0.45745364 -0.10921269 0.44195482 0.072721 0.112482406 0.023598725 0.058210377
0.19905236 0.115733795 0.30885336 0.40524134 0.1647451 -0.1902419 -0.18629739 0.00060968165
0.14716052 -0.4139611 -0.32562482 -0.011705776 0.09995566 -0.06429883 -0.3716896 -0.18087344
0.19484624 -0.0052042967 0.54800797 -0.14538041 0.07242238 0.07138667 -0.006512092 0.065702885
0.13452841 0.10523707 0.150738 0.007781894 0.1607334 0.14277865 0.1789676 0.083360925
-0.0055780415 0.026630187 0.16207637 0.052597784 0.15161213 0.10022389 0.043863446 0.08217268
0.0035306872 -0.00973131 0.06097044 0.02180182 -0.006397621 0.111106664 0.2341494 0.2042222
0.38440448 0.061455783 0.016684305 0.07819361 -0.0035824745 -0.062475964 -0.07244469 0.3396323
0.12347709 0.22884788 0.14950046 -0.23250689 -0.04780068 0.25033817 -0.14726211 0.012580841
-0.22854623 0.2465875 -0.15434942 -0.025699774 0.17953351 0.11051309 0.068554215 0.032849137
0.07164645 0.027398922 0.017007964 0.029243963 0.030404033 -0.017127557 -0.048849106 -0.03390749
0.07002432 0.07816486 0.10948973 -0.016924003 0.06933068 0.062269643 0.0103224525 -0.0030566612
-0.13138512 0.058811914 0.13027993 0.08239965 0.112916075 0.020069523 0.1280643 -0.52105826
-0.07188473 0.016417537 0.20692435 -0.32610756 -0.19438848 -0.0709523 0.18449156 0.3115522
-0.68133634 -0.38797644 -0.018458534 -0.2730885 -0.19211149 -0.6098055 -0.16693106 -0.23414248
-0.50030625 -0.5252959 -0.19122031 0.21986727 -0.02952682 -0.06686587 -0.42432672 0.35144675

bias f4 [128]
00000000: 6d3b 78bc afbd d1bd ea06 953d a011 0a3e
00000010: 0ae8 4cbd d560 5dbd 9ed9 88bd 106d 5cbd
00000020: 965e 5dbd 09d6 673c 70e6 dcbc 8924 7bbd
00000030: ce12 743d e80e 4cbc dccb 46bd 23c2 69bd
00000040: 4694 2c3e 3326 5dbd 00a7 15be ebc3 de3d
00000050: 6f55 c5bd 078e 3c3c 38d8 433e 38c8 b2bd
00000060: c0f3 bebd 3705 7f3e 122d 6dbd 7238 4f3e
00000070: 5de8 4cbd 63b3 a33d fc5e 5dbd 73cd 5e3d
00000080: d549 cd3d 308a 24bd c547 a7bd ab7d d93d
00000090: 60f1 76bd 3ec4 1cbe dbde 4ebc a9f9 96bc
000000a0: d92e d93d b0cb 0a3d c3c2 7abd e880 fbbb
000000b0: f357 973d 3677 83bb 1ee3 3cbc 2861 c23d
000000c0: 0fff 5fbd 7ad3 d53d 84ed ef3c b83c d8bd
000000d0: d5a5 803e c7d1 33bd 285d a4bc 87ee 933d
000000e0: 1c80 96bd 52a2 4a3e 7ac0 c1bc 5b4e 22ba
000000f0: 2124 1f3e a921 943e a7f9 54bd 825e 5dbd
00000100: 4f80 64bd 11b2 4e3d 6c2b 75bd 99b4 cbbd
00000110: 0d81 e5bc ece3 9d3c 037c 253d 7021 1abd
00000120: ba51 aabc ad40 893d 32fd 233e 9e5e 5dbd
00000130: e85d 5dbd 487d 0abe 792d debd 7b74 13be
00000140: 228e 2ebe 67c3 cdbd 4bd5 04bc da96 27be
00000150: e50c 07bd d147 943e b664 5dbd 8c28 04be
00000160: 8d9c a53b 1b60 5dbd ea5e 86bd c142 e3bc
00000170: 1079 8f3d 1eb7 033e 62d8 203d f232 13bd
00000180: 7007 a03c 2171 c1bd d547 de3d ade2 2e3e
00000190: 45b4 0bbe ade1 7fbd a3ba f63d a3cf 7bbd
000001a0: daae edbc 3c47 7fbd 9f2f 03bd f8e8 08be
000001b0: 929e 21bb 380a 5f3d 70ae a83c b95e 5dbd
000001c0: b3c0 393e 3119 06be db43 dcbd 4f60 5dbd
000001d0: 3e93 a93d c3f5 8d3d 98a2 89bd 41f1 d63d
000001e0: f532 1e3e 84c0 f83c 008d a1bd 4c34 223e
000001f0: bd9b a63e 6373 49be c2d4 00be 945d cc3b
-0.015150887 -0.102412574 0.072767094 0.13483286 -0.050025977 -0.054047424 -0.06682132 -0.053814948
-0.054045282 0.014150151 -0.02696535 -0.06131414 0.059588246 -0.012454726 -0.04853426 -0.05706991
0.16853437 -0.053991508 -0.14614487 0.10877212 -0.09635436 0.011508471 0.1912545 -0.08729595
-0.093238354 0.24904333 -0.05790431 0.20236376 -0.050026286 0.079932 -0.054045662 0.05439515
0.10023848 -0.04017085 -0.08167986 0.106196724 -0.060288787 -0.15309235 -0.012626375 -0.018429594
0.106046386 0.033885658 -0.061220895 -0.007675279 0.07389822 -0.004012014 -0.011528758 0.09491187
-0.054686602 0.104407266 0.029288061 -0.10558456 0.2512652 -0.04390123 -0.020063952 0.0722323
-0.07348654 0.19788483 -0.02365135 -0.00061914854 0.15541126 0.2893193 -0.0519959 -0.054045208
-0.055786427 0.050462786 -0.059855863 -0.09946556 -0.028015638 0.01927372 0.04040147 -0.037629545
-0.020790923 0.06701789 0.16014555 -0.054045312 -0.054044634 -0.13524354 -0.10848517 -0.14399903
-0.17046407 -0.10047036 -0.008107494 -0.16366139 -0.03297128 0.28961042 -0.054051124 -0.12906092
0.0050540627 -0.05404673 -0.06561072 -0.027741792 0.07005513 0.12862822 0.03926886 -0.035937257
0.019534796 -0.09445406 0.108535446 0.17078657 -0.13642986 -0.06247108 0.12047317 -0.061477315
-0.02901404 -0.062323794 -0.032027837 -0.1337012 -0.0024661166 0.054453105 0.02059099 -0.054045413
0.18139915 -0.13095547 -0.1075513 -0.054046925 0.08280037 0.06931641 -0.067204654 0.10495234
0.15449126 0.030365236 -0.07888222 0.15840262 0.32540694 -0.19672923 -0.1258116 0.0062367413

weight f4 [64, 128]
00000000: 6c45 c5bd 4a2f 633f b6a6 0a3e e267 51be
00000010: 99ba d03d 151e 5d38 7e7f debd a71b 203d
00000020: 6c93 7d38 01dc d03d 0076 203f 7433 babe
00000030: a0cc 7ebd c0a0 e73c 6c2b babe 9b2a 8f3e
00000040: 7f5b ebbe a59a d439 48e9 533e 1291 87be
00000050: 979c 8c3e 5f02 c0be b39a 92bf 6ae7 92bd
00000060: 8a81 08bf a2d5 debe 96c6 5d3f bfd4 17bf
00000070: 489e 97bc eeff 9abe dcce 7c38 7cec 5bbe
00000080: 6a41 14bf ce1b 843e 876c 983e 115a 053e
00000090: aa81 0c3f 21da aebd 954f 41bd ffe4 593c
000000a0: 53a5 54bf f538 7dbe 1ecb b4be 9dc5 0ebf
000000b0: 373a 8c3d ac08 cebe ac7c bbbe e9fa debd
000000c0: 12a7 27bc 34db bdba 2af1 8c3d c31a e73e
000000d0: f81f 8fbe d379 1e3d 93fc e13c d680 ffbb
000000e0: 52c4 2e3e e2ca 42bf b136 68be ad21 8f3d
000000f0: 63bb 43bf f4cd f5be 044e 2a3f 6bdd 7e38
00000100: 150c 22be d2e9 d73c b97f 8a3e 1cd5 423e
00000110: 8784 d5be 3448 30bf 84c4 973e a413 aabd
00000120: 4657 e5bb d0de 89be a5e2 8dbe 49d7 8038
00000130: ba67 8338 63b2 613e 4adb 83be 5c3f c83d
00000140: 7c08 003f 4aba 393f 2f6c b1be 17fc 8c3e
00000150: e434 493d 47da eebe b58c fb37 940b 563e
00000160: 27f9 bcbe ffd6 6a38 1804 6d3e 081b 193f
00000170: 85ce f6bd 25dc 1bbf d056 31bd aa7c 4fbb
00000180: 6a69 233e e145 ef3c 8b17 b2be 8fe3 e8be
00000190: d389 e33d 4f1b ea3d 7d81 c9be 0e54 293d
000001a0: a8b3 c7be c058 6bbe 8676 dbbe f3f6 2d3f
000001b0: 9316 b7be 92f1 a3bd a9fe e4bd 9aad 8038
000001c0: a45c eabe 3d08 80bd f724 4a3e 1263 7d38
000001d0: 4e90 02be fce5 3a3d 5bf9 bb3e 962f 13be
000001e0: 9eeb 0dbe 05a1 f53c 16c0 a6be 0201 afbd
000001f0: e5ea 0ebf 3d92 80be 3d52 753c 269e 0fbe
00000200: f6d3 ffbe 77d8 773f 13d7 003e 6ac3 04be
00000210: 09e7 96bd d255 32ba 15a7 fd3e b130 963e
00000220: a713 0eba f22f 3bbf b474 e83e 4d15 b1bd
00000230: 2a95 153e 6ec8 5fbe 9935 edbe 232a 3e3e
00000240: 7a0c 1f3e 4079 3db9 f7c4 e33d bb65 a8bd
00000250: 3151 343d ad2f 1bbf 0732 b0bd 8d81 05be
00000260: b12d 34be 84e5 21bd 99c4 3b3f 35b3 323d
00000270: 56f6 013f 5ccf c83e e1a4 0dba dd20 82be
00000280: fe7e 86bc ccf5 c53e 4d2f d3bd e97c fd3d
00000290: f13e 0e3f a950 853e b70f b9be 5892 c33d
000002a0: 4f80 4a3f b978 fb3d 0785 933b 0ca0 31bf
000002b0: a411 2e3d 0940 c6be 0332 08bf 573b 8c3f
000002c0: 9740 5b3d 5a75 84be d04a 5cbc ce05 673d
000002d0: 4d49 d6bd 8d93 a03d c1f2 333e 6b38 a9bd
000002e0: cdda d53e d169 093f 9c0e 91be e2d8 1abf
000002f0: cbd5 363f 9c8b 823c 477b 823e 4315 14ba
00000300: cc89 78be 802e 8e3e e7a9 093e f3da 863e
00000310: 93a4 c1be 46c6 0abe 6e6a 9a3e 2bd6 dbbe
00000320: a8e9 60bd a275 71bf 5dda d0be 7bc3 0cba
00000330: fc7f 1dba f2df e83e 2892 14bf 6ba7 ef3e
00000340: dbf2 833e 1d25 8d3e c723 023e 312e ee3c
00000350: 89e9 50be ef04 5cbd 9023 06ba ed39 223e
00000360: 57d0 963d 16eb 01ba 93ad e53e 6c4e 463f
00000370: 9785 1fbe 2041 1f3f 1b8d bdbe 6813 3d3d
00000380: 54bd ffbe e29e 36bb 88f1 0abe dc1f d0bd
00000390: d4f0 b33e 8a50 2d3d 9946 923d 7588 ab3e
000003a0: 4bed a8be 5e05 26be 2ffc 843e 3dbc ce3e
000003b0: f2b4 16bf 57eb f93d d269 2abe bc15 9bb9
000003c0: ed04 f8bd 8acf aabd dbf7 f6bc 6a5e 05ba
000003d0: 6b50 253f 1c42 c43e bf23 bfbe 0824 abbe
000003e0: 798d b8be e0be 5dbe 83e9 1d3e bb92 0fbe
000003f0: 1fba f83d 5090 d7be 52af 123f 4acd 12be
-0.09632382 0.8874403 0.13540158 -0.20449784 0.10191841 5.2718522e-05 -0.10864161 0.03908887
6.0457198e-05 0.101982124 0.62680054 -0.3636738 -0.062206864 0.028274894 -0.36361253 0.27962193
-0.45968243 0.0004055101 0.20694458 -0.26477867 0.2746322 -0.3750181 -1.145346 -0.07173045
-0.5332266 -0.43522364 0.86631143 -0.59309 -0.018508092 -0.30273384 6.0274135e-05 -0.2147693
-0.57912314 0.25802463 0.297703 0.13022639 0.5488535 -0.085376985 -0.047195036 0.013299226
-0.83064765 -0.24728759 -0.35311216 -0.55770284 0.06847041 -0.4024099 -0.36618555 -0.10887701
-0.010232704 -0.0014484883 0.06881936 0.45137605 -0.27954078 0.0386904 0.027586257 -0.007797341
0.17067078 -0.76090825 -0.22677113 0.06988845 -0.76457804 -0.48008692 0.6652529 6.076453e-05
-0.15824921 0.026356611 0.2705057 0.19026607 -0.41702673 -0.68860173 0.29642117 -0.083045274
-0.006998929 -0.26927805 -0.2771198 6.1436156e-05 6.265887e-05 0.22040705 -0.25753242 0.0977771
0.50012946 0.7254988 -0.3465285 0.2753608 0.049122706 -0.46650907 2.9987053e-05 0.20902854
-0.36908838 5.599018e-05 0.23146093 0.5980687 -0.12051109 -0.6088279 -0.04329568 -0.003166
0.15958181 0.029208126 -0.34783587 -0.45486113 0.11110272 0.1143099 -0.39356604 0.041339926
-0.39004254 -0.22983074 -0.42863864 0.6795494 -0.3575941 -0.0800506 -0.11181385 6.1358514e-05
-0.45773804 -0.06251571 0.19740663 6.0412167e-05 -0.1275036 0.045629486 0.3671368 -0.14373621
-0.13859412 0.029984007 -0.32568425 -0.08545114 -0.5582717 -0.2511157 0.01497322 -0.14025173
-0.499664 0.96814674 0.12582044 -0.1296517 -0.07368285 -0.00068029494 0.49541536 0.29334024
-0.00054197985 -0.73120034 0.45401537 -0.08646641 0.14607683 -0.21853802 -0.46329954 0.18570761
0.15532103 -0.00018069614 0.111215524 -0.082225285 0.044022743 -0.6061962 -0.08603292 -0.13037701
-0.17595555 -0.039525524 0.7334686 0.043627936 0.50766504 0.39220703 -0.0005403292 -0.25415698
-0.016417976 0.3866409 -0.10311756 0.1237734 0.5556479 0.260381 -0.36144802 0.09549397
0.79102033 0.122788854 0.004501942 -0.6938484 0.042497292 -0.3872073 -0.5320131 1.0955609
0.053528395 -0.25870782 -0.013445571 0.05640202 -0.104632 0.07840643 0.17573072 -0.08262714
0.41768494 0.5367709 -0.2833146 -0.60487187 0.7141997 0.015935712 0.25484678 -0.000564892
-0.24271315 0.27769852 0.13443719 0.2633892 -0.37820873 -0.13552198 0.30159324 -0.42936835
-0.054910332 -0.9432012 -0.40791598 -0.0005369705 -0.0006008146 0.45483357 -0.58035517 0.46807417
0.25771222 0.27567378 0.1270896 0.02907476 -0.20401587 -0.053715643 -0.00051169936 0.1584241
0.073639564 -0.000495599 0.4485899 0.7746341 -0.15578304 0.6220875 -0.37021717 0.046161085
-0.49949133 -0.0027865698 -0.135687 -0.10162327 0.35144675 0.042313136 0.07142372 0.33502546
-0.3299354 -0.16212985 0.2597365 0.4037799 -0.5886985 0.12203091 -0.1664193 -0.00029580097
-0.121103145 -0.08340366 -0.030147484 -0.0005087616 0.64575833 0.38331687 -0.3733196 -0.33425927
-0.36045435 -0.21654844 0.15421109 -0.14020817 0.12144875 -0.4210229 0.5729877 -0.14336124

bias f4 [64]
00000000: 2915 ed3c ebb5 9ebd ecfd 7abb 3160 88bd
00000010: 17d8 9cbd a5b4 52bd 7c0a f1bc 26b7 26bc
00000020: f731 fdbc e8fa 8239 86b9 303d e0c2 ccbc
00000030: cb8d 5dbd f37f abbd 4998 b5bb 4fa1 2abd
00000040: 4972 7b3d 6960 52bd cdce 19bc bd43 f0bc
00000050: 7c22 26bd 8f7e 853c 29a5 89bd 0d2a 3bbd
00000060: 07fb 0f3d c589 71bd 86c6 ffbb 996e 65bc
00000070: f12a e6bd 3836 22bd 24a1 6bbd 87b7 4cbe
00000080: ad6f 12be c598 05be e198 823c ffef d13c
00000090: ae7a 59bd 3685 44bc 1736 83be 2fe4 a6bd
000000a0: a5fa 143d 3d5e a2bc 3f4b bbbd 67d7 85bd
000000b0: 3796 153d 066e c8bd 4f8b 2abe 1491 e2bc
000000c0: c532 c4bd d1d1 abbd 40c1 babd f4ba 8d38
000000d0: 3619 63bd 8239 98bd 28a6 16bd 927e 84bd
000000e0: 1dac 2dbd c19f 7abd 4a75 85be 2d82 b7bd
000000f0: e152 03be bc66 81be 1e84 2a3d 035a 6ebd
0.028940754 -0.07749542 -0.0038298322 -0.06658972 -0.07658403 -0.051441807 -0.029423945 -0.010175502
-0.030907614 0.00024982472 0.04314568 -0.024995267 -0.054090302 -0.08374014 -0.0055418354 -0.041657742
0.061388288 -0.051361475 -0.009387684 -0.029329175 -0.04056023 0.0162957 -0.06720955 -0.0456944
0.035151508 -0.058969278 -0.0078056483 -0.014003419 -0.11238659 -0.03960249 -0.057526723 -0.19991885
-0.14300413 -0.13046558 0.015942039 0.025627134 -0.053095512 -0.011994651 -0.25627205 -0.08148991
0.036371846 -0.019820327 -0.091452114 -0.06535225 0.03652021 -0.0978661 -0.16654705 -0.02765707
-0.09579996 -0.08389629 -0.09118891 6.758227e-05 -0.055443965 -0.07432844 -0.036779553 -0.06469454
-0.04240047 -0.06118751 -0.26066047 -0.08960376 -0.12824585 -0.25273693 0.041629903 -0.05819131

weight f4 [32, 64]
00000000: d830 d9be f949 b9be 1e19 8cbe 471e 8cbe
00000010: 68dc 203e d3bf 9cbe 1ead 91be ec48 eebe
00000020: 8aa1 203e 5ec7 ddbe 759d c03e 5b6b a33d
00000030: df50 ae3e 14b7 8bbe e5f4 a4be ec6e 9abe
00000040: 2916 583e 682c 8cbe fa59 8abe 5e55 9c3e
00000050: d66e a9be a557 6f3e ae25 74be 3497 6cbe
00000060: cc12 d6be 0008 a2be e6db 8e3e ebfe 393e
00000070: ee78 bd3e 6360 ccbe 0d23 3fbe ee11 913d
00000080: 1f7d c03c 3ba6 e63d cbcf 51be 70b7 dcbe
00000090: ae65 f9bd 0aec b83e f3ef b9bd 5fe6 bbbe
000000a0: 3618 923e cd15 8abe 6204 7d3e 6a26 c8be
000000b0: 7cf8 903e 0440 7a3e 03c7 d7bd e547 e2be
000000c0: 0a13 8c3e b438 80be ac59 973e d614 a3be
000000d0: 5c9e 0b3e 286f 9fbe a3b1 453e f32c 3e3e
000000e0: c2fd 82bd 03d0 843e 0c81 15bd 58f8 063e
000000f0: 1f40 bfbd 6a53 e0bb a4f7 bfbe 9513 dabe
00000100: 4de0 25bf 7b0e d3be 1a32 01bf 2e03 abbe
00000110: 197b 543f 214f c7be d470 94be 0221 1cbf
00000120: c1c0 073f d3c7 0dbf dbee 6e3f 85eb 453f
00000130: c547 853f 9af8 ecbe ac8d f0be d6ec d9be
00000140: 2d5d 683f d203 e9be ad4e d9be 4138 033f
00000150: 2eb3 e9be 1c8b 423f 2e28 87be 1786 d0be
00000160: 55eb 0abf b870 ecbe c471 3a3f cf5f 6c3f
00000170: fc7d 583f 0765 aebe 8996 0abf bf19 8b3e
00000180: a99f 4e3e 21bb 4bbe 423a 72be f680 f7be
00000190: a0ab b6be 4717 5f3f c52b f63d f41b a4be
000001a0: 28eb 283f 630c babe 009c 083f aca3 13bf
000001b0: 5081 793f 4c89 203f e356 553e 34e2 02bf
000001c0: b320 4e3f deba d6be 9863 403f c6a5 d5be
000001d0: b0aa 2c3f 7efa 8ebe 0837 243f 0952 233f
000001e0: 41ef 2ebe 3e3e 1a3f dcd2 2f3d 1214 303f
000001f0: 449d 663c 1fb0 38bc 94c2 ccbe fdbe f5be
00000200: 0e2d 8abe aac5 95be 6c30 9bbe 1e4d 51be
00000210: d3df d43e aa69 a2be 866d 15be a572 babe
00000220: 378a 553e 7375 d1be 0bce 923e bbd1 483e
00000230: 9d4d 033f 0b2a adbe c210 38be 03d4 c8be
00000240: 3d5c d73e 9719 c9be ab4a 98be b0e6 f13e
00000250: 15e4 e5be 07ad 193e 5c44 83be 7ac6 f1bd
00000260: 72d6 cebe 35ef 58be a938 ab3e b9b3 a13e
00000270: 2699 cc3e 9162 a5be 0c3f b2be 1e05 043d
00000280: ac3c f33d 52ad 6e3e 52ec a2be f267 dcbe
00000290: 18a8 81be b27a f63e fbd8 d4bd cb90 b6be
000002a0: cecd ad3e afd9 82be 410e 803e e377 e4be
000002b0: d5e3 ac3e ce05 dd3d 1772 d43c 9d5b c1be
000002c0: 9dfb 583e bc0f 8bbe e093 bb3e 04de b8be
000002d0: 8a5d 903e 034b 8fbe bd2f 133e 5c87 3e3e
000002e0: 3c76 67be 6009 413e 9026 ccbc af53 4a3e
000002f0: 5555 acbd b51a abbc fd04 a5be 9406 d2be
00000300: 70cf 7dbe 6b68 69be 3a61 43be bebb 7fbe
00000310: 9397 13bd b9f5 34be 92e3 a8bd eeea 52be
00000320: b14d 533d 2fd1 bbbe 2cc0 1c3d 931c 25bd
00000330: b12b 523c 725e a9be 2cd2 59be f86e aebe
00000340: d112 15bd d46e 61be ec2d 97be 397b 893e
00000350: dfe9 aebe 0b6f 2fbe 3d0f 04bd 8969 d6bd
00000360: de9e 88be 75e6 c0be b862 4dbd d931 a53c
00000370: 440a bf3d 30fc 87be f16b 9abe ada1 f3bd
00000380: be4c edb8 7076 343e 5e4f 9ebe ce6d b3be
00000390: eb96 86be 9bb1 fd3d 2400 7ebd 5bf8 61be
000003a0: 48ea 073e 0a61 febd 4e91 363c 3fb1 b3be
000003b0: 3765 d23d 8733 ddbc d7f6 0bbe 4aa6 d2be
000003c0: 904d b1bd d091 acbe 838c 9dbd 2b46 95be
000003d0: b350 023c 0b16 a5be b3a4 c6bc 7ad1 77bc
000003e0: 1338 16be 98ba f9bd 5fcb c2bc c962 9e3d
000003f0: e9bf 01be 61f9 35bd 924d bcbe bfd9 55be
-0.42420077 -0.3618925 -0.27362913 -0.2736685 0.15709078 -0.306151 -0.2845239 -0.4654001
0.15686622 -0.43316168 0.3762013 0.07979461 0.34046075 -0.27288115 -0.3221809 -0.30162752
0.21102203 -0.2737763 -0.27021772 0.3053388 -0.33092374 0.23373277 -0.23842499 -0.23104554
-0.41811216 -0.3164673 0.27902144 0.1816365 0.37006325 -0.39917287 -0.18665715 0.07083498
0.023497162 0.11262175 -0.20489423 -0.43108702 -0.12177597 0.36117584 -0.0907897 -0.36699197
0.28534096 -0.26969758 0.24708703 -0.39091808 0.2831458 0.24438483 -0.10536005 -0.44195476
0.27358276 -0.2504326 0.29560602 -0.31851834 0.13634628 -0.31139493 0.19306044 0.18571834
-0.06396057 0.2593995 -0.03650002 0.13180673 -0.09338402 -0.006845881 -0.37493622 -0.42593065
-0.6479538 -0.41221985 -0.50467074 -0.33400863 0.8300033 -0.38927558 -0.2899233 -0.60987866
0.53028494 -0.5538303 0.93333215 0.773125 1.0412527 -0.46283418 -0.46983087 -0.42563504
0.90767175 -0.45510727 -0.42442837 0.5125771 -0.45644516 0.75993514 -0.26397842 -0.40727302
-0.5426534 -0.46179748 0.7282984 0.9233369 0.84567237 -0.34061453 -0.5413595 0.2716808
0.20178093 -0.19895603 -0.23655036 -0.48340577 -0.35677814 0.87144893 0.12020067 -0.32052577
0.6598382 -0.36337575 0.5336304 -0.5767162 0.9746294 0.627095 0.20833926 -0.5112641
0.80518645 -0.41939443 0.7515197 -0.41728038 0.6744795 -0.27925485 0.6414647 0.6379705
-0.17083456 0.60251224 0.0429257 0.68780625 0.014075581 -0.011272459 -0.399922 -0.47997275
-0.269875 -0.29252368 -0.3031038 -0.20439574 0.41577014 -0.3172124 -0.14592561 -0.36415592
0.20853506 -0.4090992 0.28672823 0.19611256 0.51290303 -0.3382114 -0.17975143 -0.39224252
0.4206256 -0.39277336 -0.29744467 0.47246313 -0.44900575 0.15007411 -0.25638092 -0.118054345
-0.40397984 -0.21185 0.33441666 0.3158243 0.39960593 -0.32301763 -0.34813726 0.032231443
0.118768066 0.23308304 -0.31820923 -0.43048054 -0.25323558 0.48140484 -0.10392948 -0.35657343
0.3394608 -0.25556704 0.25010875 -0.44622716 0.33767572 0.10792123 0.025933309 -0.37765208
0.21189733 -0.27160442 0.36636257 -0.36106884 0.28196365 -0.27986917 0.1437368 0.18606323
-0.22603697 0.18851233 -0.024920732 0.19758485 -0.08414713 -0.020886758 -0.32230368 -0.41020644
-0.24786162 -0.22793739 -0.19080058 -0.24973962 -0.036033224 -0.17671861 -0.082465306 -0.20597431
0.051587764 -0.36683032 0.038269207 -0.040310454 0.0128278 -0.3307987 -0.2127158 -0.34069037
-0.036394898 -0.22014934 -0.29527223 0.26851824 -0.34162804 -0.17132203 -0.032241095 -0.10469348
-0.26683706 -0.37675825 -0.050142974 0.02016537 0.0932813 -0.2655959 -0.30160478 -0.118960716
-0.00011315335 0.17623305 -0.30919927 -0.35044712 -0.26287016 0.12387391 -0.062011853 -0.22067396
0.13272965 -0.124208525 0.011143042 -0.35096166 0.102732114 -0.02700211 -0.1366838 -0.41142493
-0.08657372 -0.33704996 -0.07692816 -0.29155096 0.0079538105 -0.3224338 -0.024248457 -0.015125627
-0.14669828 -0.12193793 -0.023778616 0.077336855 -0.12670864 -0.04442728 -0.3677793 -0.20883845

bias f4 [32]
00000000: 8995 41bd b4d9 3dbd 1e16 e6bd 5801 a9bd
00000010: 81cc 1abd 3b08 7ebe 1fe4 8fbe d81e 0fbe
00000020: a52a 21bf 9ab8 523c 8892 2cbe f157 50be
00000030: fd46 83bd bf16 6ebe 420b 8fbd 2599 2a3d
00000040: 87df 0dbf 3f67 ddbd 43c6 dabd c62a 21bf
00000050: 132a 1ebf 799b 73be 9a55 29bf f290 45be
00000060: 4765 29bf 3ab5 77be d544 a3be f3d9 f7bd
00000070: 5330 18bf 63c0 1abe 5e82 42be 3edb 6cbd
-0.04726175 -0.046350196 -0.11234687 -0.082522094 -0.037792686 -0.24807827 -0.2810373 -0.1397661
-0.62955695 0.012861395 -0.16852772 -0.20346047 -0.06410024 -0.23250864 -0.06984569 0.041649956
-0.554192 -0.10810708 -0.10682347 -0.6295589 -0.6178295 -0.23789777 -0.6614624 -0.19293573
-0.6617016 -0.24190226 -0.31888452 -0.121021174 -0.59448737 -0.15112452 -0.18995044 -0.057826273

weight f4 [1, 32]
00000000: a351 0d3e 6a15 f13e 4cd4 413e e07b d33d
00000010: 10b9 d33d 352b 053e d20a ef3d 8dda 20bd
00000020: cebb 033e 29a2 f0bd a19a 943d 9dc5 483e
00000030: d6f1 56bd 32fb 2cbd 8e4c 303e 6ecc e9bd
00000040: 1399 9b3d 0720 ab3e d544 cfbd a15c e93d
00000050: fe81 043e f431 8a3d a1bd fd3d 5d4e 813e
00000060: f7a9 fd3d c558 8b3d 1d73 803d 3e54 bfbd
00000070: 14ac 063e cd36 f3bd ea24 3e3e e6f9 5fbd
0.13800673 0.4708665 0.18928641 0.10326362 0.10338032 0.13004763 0.11671986 -0.039270926
0.1286461 -0.117496796 0.072560556 0.19606633 -0.052476726 -0.042231746 0.17216703 -0.11415945
0.07597556 0.33422872 -0.101205505 0.11394621 0.12940213 0.06747809 0.123896845 0.252551
0.12385934 0.06804041 0.06271956 -0.0934224 0.1315158 -0.11875687 0.18568769 -0.05468168
